data/DeepQNetwork.onnx (onnx, 54101 bytes, 6 tensors)

fc1.bias f4 [128]
00000000: c0ad 413c 5c3d e2bd f77b 143e 5076 d8bd
00000010: 6075 193c a51b 9cbd 4a1e aabd a372 183e
00000020: b3fb 093e 0e7f b33d 503e 4bbc c97e 1abe
00000030: c4ef e8bd 424d 1dbe 14b8 183d c0ce 2b3b
00000040: 0341 22be 0b7d b5bd 697b 193e e6ef c9bd
00000050: f29b cd3d d91d 0a3e 40fb 1e3b 084d 463d
00000060: 5887 f6bd 3b50 033e 9eda 08be ba20 f53d
00000070: af89 163e 2eb9 d33d 28e3 c4bc 4ea6 cd3d
00000080: 308c a2bd f848 92bd a041 a53d 1afb c13d
00000090: 2d8d 193e 7e18 dd3d bfaa 1b3e 553c b8bd
000000a0: 203a 43bc 7679 12be 18d2 0ebd 9097 a63d
000000b0: 30f4 ef3c 92b6 56bd 160a a7bd dc71 0b3d
000000c0: 86a8 93bd 003c 95bd 423f 24bd 0028 36bd
000000d0: 54e8 dbbd 5fb4 04be 9b9d 003e 9774 1e3e
000000e0: 850f 0d3e e0fe 4fbc b874 993d fa2a 2abd
000000f0: d561 173e ac21 3b3d 8efe c73d 2442 52bd
00000100: 3f9a efbd 4f3f 06be f8fc 22be c048 f2bc
00000110: 5242 813d bcdc f1bd c0cd 62bb baee dfbd
00000120: 64b8 2fbd 7cb0 f1bd 3e98 4ebd 82d9 e8bd
00000130: be4d ce3d 7a4f d23d 5c92 a43d fbc5 0f3e
00000140: 106d 0cbd fbec 1a3e f437 51bd f824 613d
00000150: 0e70 8c3d f34a 1f3e 5073 eabc 4657 c0bd
00000160: a087 783c 00d7 103b 774f 203e 9f72 1c3e
00000170: e4ba 683d 952e 8bbd 7f74 123e 921d ec3d
00000180: e1aa 13be 2803 ebbc dcc7 f4bd 2234 933d
00000190: 3efc c13d dab0 13be a680 b23d 388d b7bc
000001a0: eab8 ea3d c02c 0cbc f571 bbbd 7ff1 053e
000001b0: f23c ea3d a2ef cc3d 5a66 873d d6f2 57bd
000001c0: 1a2d c33d 3ebc 88bd fc1f 543d c4e2 983d
000001d0: 1ec2 f13d e096 d83b da37 bc3d b2ff c93d
000001e0: d0b3 7d3c 4ee2 f6bd 11c6 88bd 52b8 b73d
000001f0: e879 0ebd 3eb6 87bd c2ba dcbd 0c1a 2d3d
0.01182121 -0.110468596 0.14500414 -0.10569441 0.009366363 -0.0762246 -0.083065584 0.1488748
0.13474922 0.08764468 -0.012404993 -0.15087427 -0.11373857 -0.15361503 0.037284926 0.0026215762
-0.15845113 -0.08861741 0.14988483 -0.0986021 0.1003951 0.13487948 0.0024258643 0.048413306
-0.120375335 0.12823574 -0.13364646 0.11969133 0.1470096 0.103380546 -0.024034098 0.10041486
-0.07936895 -0.07142824 0.080691576 0.09471722 0.1499526 0.10795687 0.15201853 -0.089958824
-0.011915714 -0.14304146 -0.03486833 0.08134377 0.029291242 -0.052420206 -0.081562206 0.03404413
-0.07209878 -0.07286835 -0.04009939 -0.04447174 -0.107376724 -0.12959431 0.12560122 0.15474163
0.13775451 -0.012695044 0.074929655 -0.041544892 0.14783414 0.04568641 0.09765349 -0.051332608
-0.11699342 -0.13110088 -0.15916812 -0.029575706 0.06311478 -0.1180968 -0.00346075 -0.10934205
-0.042900458 -0.1180124 -0.05043816 -0.11369611 0.10073422 0.10269065 0.08035728 0.14040367
-0.034283698 0.15129463 -0.05107875 0.054966897 0.0685731 0.15555935 -0.028619438 -0.09391646
0.015169054 0.0022100806 0.15655313 0.152781 0.056818858 -0.06795994 0.14302252 0.115290776
-0.14420654 -0.028688028 -0.11952183 0.07187678 0.094719395 -0.14422932 0.08715944 -0.022406206
0.11461051 -0.008555591 -0.09152595 0.13080405 0.11437406 0.10006644 0.06611319 -0.05272182
0.09530087 -0.06676529 0.051788315 0.07465127 0.11804603 0.0066097826 0.0919034 0.09863223
0.015484765 -0.12054883 -0.06678403 0.08970703 -0.034784228 -0.06626557 -0.10777809 0.04226117

fc1.weight f4 [128, 37]
00000000: 8aba dabd f4d7 37bd 4650 8f3d 5c7c 62bd
00000010: bbd4 d4bd 00ca 9b3a 888f 813c 1885 9d3c
00000020: b408 093d 6ef6 8cbd 6a25 f83d ca58 b43d
00000030: 8abb ce3d 6c75 9d3d 08a1 12bd 5c1a a63d
00000040: 8691 d2bd cf09 bbbd d95f 173e 096d a6bd
00000050: 50be 72bc 549a 253d 9a3b e3bd 50b8 adbc
00000060: 6ab7 953d 4fe2 0f3e 1460 9a3d c0df 2a3c
00000070: fc65 9f3d c955 eebd 4090 6b3c 6473 213d
00000080: b0f5 cd3c 4e7c 9c3d 2a3c da3d 8a7c 68bd
00000090: 9c2d 9f3d 66b3 923d 60c2 863d 4329 b5bd
000000a0: 7383 1f3e 38fc d73c e43b 5abd 501c 14bc
000000b0: 3a63 12be e310 193e 8b66 b8bd f881 4d3d
000000c0: b04a 413c 00c8 fa38 1fb1 103e 57a9 1f3e
000000d0: 2c42 4bbd 22b6 27bd 96da eebd a814 0bbe
000000e0: ecd7 06be b494 9c3d f4d4 a33d 9c3a 7b3d
000000f0: 00f7 babc 1fc2 1bbe 39db 0cbe 9c46 533d
00000100: 00e5 a6bc 0094 f5bd 401e 33bd 7e4d 06be
00000110: 2819 c5bc 2043 febb 87c3 243e 6c29 673d
00000120: f42c 113d e090 493c dafe 21be 327b 7fbd
00000130: 7063 1c3c 701e 85bc 58c1 09be f8f2 7cbd
00000140: 5573 96bd b012 15be 987a 12bd 600d 83bb
00000150: 23cd b6bd 1eec 18be 1c76 d5bd a64c d53d
00000160: 0f7e 1dbe 0431 8e3d 9015 fdbc 20dd 7ebc
00000170: da7a b83d e014 35bd 6521 16be 7205 2fbd
00000180: d9a5 0e3e 7030 623c 76d9 8f3d 0435 25be
00000190: b9c3 b2bd aaf6 943d f4c2 71bd 3a4c bdbd
000001a0: 9010 e8bc 0249 18be d212 be3d 3a62 853d
000001b0: b8bf e7bc 7cd7 0a3d edb8 12be 29b6 08be
000001c0: 6d18 223e 9330 0e3e ab6e 22be a017 9b3d
000001d0: 9164 273e 4056 c8bc 6c3a 0dbe f004 18bd
000001e0: 8080 6fbb 528d f8bd 0460 423d 244b 303d
000001f0: a836 b3bc f0af 703d 3f7e 9ebd eeb2 e3bd
00000200: f787 b5bd 18f7 1ebd c8ff 27be 6d30 10be
00000210: 2881 87bc 9bf9 b7bd f67c d5bd 1e54 98bd
00000220: 2c37 88bd a41f 563d cb7b f1bd ba07 b53d
00000230: f505 073e 186e ffbd 398e 203e ec82 a23d
00000240: fe1e 19be 40d1 293c 60e3 3d3c 989e 23be
00000250: 4e53 94bd 957c 033e 2012 57bc 772f 03be
00000260: 10d8 a33c 711f ecbd 9295 f5bd 4b4b 9ebd
00000270: 551e f8bd 36a4 79bd f3b8 f4bd fe76 ab3d
00000280: 8022 6a3b eaec 9fbd 187f 403d 68f7 36bd
00000290: 8a41 9fbd 0093 b13a 68b7 1dbd c8a7 2a3d
000002a0: 84ab c8bd c09b 48bc 2702 11be fe6e e83d
000002b0: 1093 28bd 00e0 803d 89c9 073e 92e6 b83d
000002c0: 0409 8fbd 3c7c 16be 80bc a2bc c5c6 0dbe
000002d0: 003b b53b e806 fb3c 74c6 9f3d 8eca b73d
000002e0: 0065 e63c f88e b6bc 40b6 9c3b 72c6 e73d
000002f0: f017 6fbd c015 f8bd 129d 2ebd 0c29 7abd
00000300: 786b c43c 13c7 a4bd e932 173e cf4f 113e
00000310: c4a9 7dbd 9c35 2b3d 7ba0 a1bd a7b6 233e
00000320: e002 cb3c f8c6 7d3d 7e78 d9bd a38f 103e
00000330: a0a7 843b 6c0a 483d fc8a 893d 06b2 b03d
00000340: 6056 343d 7bce 1fbe 7bc2 1c3e 11ac 15be
00000350: f913 143e 313e 1bbe 48d8 a6bc a03c 96bb
00000360: 2820 923d 443a b3bd 3ecf bebd 2c0f 24be
00000370: f0b5 bdbc 0f03 0abe c0b6 483c 2e57 c63d
00000380: c87a 45bd f208 a4bd d445 11bd e246 09be
00000390: 6838 17bd ea3c e53d b0c1 82bc f915 18be
000003a0: 3be4 183e 6990 00be 0bdf 1abe 1633 14be
000003b0: 0046 4d3a 51c2 bebd c06c 0abd 8b00 babd
000003c0: 26db f53d 884b 133d d5f9 103e b4b3 91bd
000003d0: 38a9 ffbc 095d 0bbe ead5 fbbd ef8c 21be
000003e0: 9015 adbd aaa4 a6bd 00e8 1eb9 a689 943d
000003f0: 206a fdbb a6a8 ee3d fa85 df3d 8a0b be3d
-0.10680111 -0.044883683 0.06997733 -0.05529438 -0.103921376 0.0011885762 0.015815511 0.019228503
0.033455566 -0.0688294 0.12116511 0.08805998 0.10094364 0.07688412 -0.035798103 0.081104964
-0.10281663 -0.0913273 0.14782657 -0.081262656 -0.014815882 0.040430382 -0.110953525 -0.021206051
0.07310374 0.14051174 0.07537857 0.010429323 0.07783124 -0.11637456 0.014377654 0.039416686
0.025141567 0.07640897 0.10656007 -0.056759395 0.07772371 0.07163124 0.06580043 -0.08845761
0.15577488 0.026365384 -0.053279772 -0.009039953 -0.14295664 0.14947848 -0.090039335 0.050172776
0.011797592 0.00011958182 0.14130066 0.15591942 -0.049623653 -0.04094518 -0.11662786 -0.13582098
-0.13168305 0.0764555 0.07999602 0.06133519 -0.022822857 -0.1521077 -0.13755502 0.05158101
-0.020372868 -0.119911194 -0.04373002 -0.13115498 -0.024059847 -0.007759467 0.16090213 0.056435987
0.03544326 0.012302607 -0.15819874 -0.062373348 0.009545192 -0.016249865 -0.13452661 -0.06175515
-0.073462166 -0.1455791 -0.035761446 -0.003999397 -0.089258455 -0.14933822 -0.10422918 0.1041501
-0.15380119 0.06942943 -0.03089407 -0.01555565 0.09007807 -0.04420936 -0.14661177 -0.042729802
0.13930453 0.013805494 0.07023899 -0.16133505 -0.087287374 0.0727361 -0.059023812 -0.09243055
-0.02832821 -0.148716 0.092809334 0.06512876 -0.02828966 0.03389691 -0.14328356 -0.13350739
0.1582963 0.13885717 -0.15862529 0.075728655 0.16346957 -0.02445519 -0.13791817 -0.037114084
-0.0036545098 -0.1213633 0.04745485 0.04304041 -0.021876648 0.058761537 -0.07738923 -0.111181125
-0.08863824 -0.038809866 -0.16406167 -0.14080973 -0.016541079 -0.08983155 -0.10424225 -0.07437919
-0.06651148 0.05227627 -0.1179119 0.08839364 0.13185866 -0.124721706 0.15679254 0.079351276
-0.14953229 0.0103648305 0.011589855 -0.15978467 -0.072424516 0.12840493 -0.01312688 -0.12811075
0.020000488 -0.115294345 -0.11991419 -0.07729205 -0.121151604 -0.06094762 -0.11949339 0.08372305
0.003572613 -0.0780886 0.046996206 -0.04466954 -0.077761725 0.0013547838 -0.038504988 0.041663915
-0.09798339 -0.012244165 -0.14160977 0.11349295 -0.041155875 0.062927246 0.13260473 0.09028353
-0.069841415 -0.14695829 -0.019865274 -0.13845356 0.005530715 0.030642942 0.07801524 0.08974181
0.028124332 -0.02228497 0.004782468 0.11317147 -0.058372438 -0.121135235 -0.042630263 -0.0610743
0.023977026 -0.08045783 0.14765514 0.14190601 -0.06192948 0.041799173 -0.07891937 0.15987645
0.024781644 0.06195733 -0.10618685 0.14117293 0.004048303 0.048838064 0.06715962 0.08627705
0.044027686 -0.1560611 0.15308563 -0.1461642 0.14460744 -0.15160443 -0.020366803 -0.004584864
0.071350396 -0.08751348 -0.09316872 -0.16021413 -0.023158044 -0.1347773 0.012250602 0.09684597
-0.048212796 -0.08009519 -0.035466984 -0.13405946 -0.036919028 0.11193259 -0.015961498 -0.14852132
0.14930813 -0.12555088 -0.15124147 -0.14472613 0.000783056 -0.09314407 -0.03379512 -0.09082135
0.1200469 0.035960704 0.14157803 -0.07114354 -0.03120862 -0.13609709 -0.1229666 -0.15776418
-0.08451378 -0.08136876 -0.00015154481 0.07252817 -0.0077335984 0.11653261 0.10914226 0.09279545

fc2.bias f4 [64]
00000000: 74e4 d93c 2561 983d 42b1 1d3d 3383 adbd
00000010: 093a b1bd 701f 36bc 14c1 b23c 6098 303b
00000020: 6833 5d3c 3617 6f3d 8e7b 073d 884c 393c
00000030: 21a6 873d 0cb8 92bd 752b a83d 40dd 1c3b
00000040: 7d6a a23d 0f3e 8b3d 9355 b1bd 8c19 9fbd
00000050: 9aff debc 745d 8fbd 80d0 ed3c dbc2 15bd
00000060: a0ff e93c 1d44 983d a3d3 8a3d 487e 143d
00000070: 74b0 93bc 5d36 9dbd 0845 6c3c b7f4 3bbd
00000080: e567 963d 97e4 a5bd 0017 a8bd 4845 2fbc
00000090: 7ac9 98bd e66d 78bd 97f9 adbd 183b 913c
000000a0: c0f4 313b 4d5e 90bd 4e9a 3c3d 70a8 84bc
000000b0: b8e2 6bbd a552 95bd 562f 1e3d 1c93 1abd
000000c0: b805 34bc ae79 503d 86ea 353d 22c4 323d
000000d0: c633 013d b663 9ebd ddf1 993d 500e 89bc
000000e0: 20eb 48bb 55ec 9bbd b3b2 1ebd 0624 f7bc
000000f0: 4de9 ac3d 58f9 d7bc 8a96 373d dfc6 7fbd
0.026598193 0.07440404 0.038499124 -0.0847229 -0.086536475 -0.011115894 0.021820582 0.0026946291
0.013501026 0.058371745 0.033076815 0.01130975 0.066234834 -0.071640104 0.08211414 0.0023935586
0.07930467 0.06798946 -0.086589 -0.077685446 -0.02722149 -0.07000247 0.029030085 -0.03656278
0.028564274 0.074348666 0.06778648 0.036253244 -0.018028475 -0.076763846 0.014420755 -0.045887675
0.07344035 -0.08100241 -0.08207512 -0.01069767 -0.074603036 -0.060651682 -0.08494871 0.017728373
0.002715394 -0.070492364 0.046045594 -0.016193599 -0.057589263 -0.07291154 0.03861936 -0.03773795
-0.010987692 0.050897293 0.044413112 0.043644078 0.031543516 -0.07733862 0.07516835 -0.016730458
-0.0030657724 -0.07613436 -0.03874464 -0.030168545 0.08442936 -0.026364014 0.0448213 -0.062445518

fc2.weight f4 [64, 128]
00000000: da0a 95bd 375e a93d b84d 123c 8257 f3bc
00000010: 0042 73b9 ac7d 32bd 002e 113a 4c99 cb3c
00000020: 3ea0 4d3d 8895 1fbc a2c2 a8bd 8b46 943d
00000030: 0d2f 8a3d 77ff 9c3d 9fc3 9a3d 6545 8f3d
00000040: 6468 ea3c 46ad 9dbd 5dc2 8f3d f14e a63d
00000050: dd4d 8abd 5b78 903d 07d7 3dbd 7e5f 92bd
00000060: 1f7b 9c3d c2b7 783d 6c61 75bd 5ea5 203d
00000070: 9972 8b3d b32d 56bd a6a5 2fbd 7a97 423d
00000080: b357 863d def1 293d 39e3 1cbd bcb7 3abd
00000090: 1c60 ae3c 3f66 883d e2c5 f4bc a4a9 bd3c
000000a0: ec75 67bd 3de6 7fbd 3dfb 9b3d 9259 3e3d
000000b0: ea92 0d3d 3f83 a33d a008 6a3b 7b61 adbd
000000c0: e70a 5bbd 70e5 0c3c 149e ba3c 202b 9bbd
000000d0: fde2 883d 58b3 603c 0032 adbb 438b af3d
000000e0: 47ac 53bd 9efd 303d 5439 0f3d aec7 fbbc
000000f0: 4eec 543d e63d 123d 50f6 c6bc 187f 3bbd
00000100: 4069 70bc ce8e 95bd 4b6d 9c3d 5dc7 8a3d
00000110: 6473 993c ec2a 95bd 2094 0fbb 5f13 a33d
00000120: 78d4 76bc ca2a 5c3d cdba 81bd 789c 463c
00000130: c8aa a1bd 6809 6fbc 5076 80bb 6d2d 0cbd
00000140: 10e7 d73b 3cbe ba3c 22c4 523d acf8 a4bd
00000150: d696 9abd 71be 35bd 89b3 aebd dacd 343d
00000160: 3783 15bd 4a63 6b3d f9c2 61bd 842c 903c
00000170: a6f8 753d ca2b 45bd 8e90 23bd c50a a43d
00000180: 9d27 923d aadf 92bd c438 95bc 405a b3bc
00000190: a8b3 793c 8843 943c 070d 15bd b30d 20bd
000001a0: bdb6 ae3d c533 993d 9d0d 24bd 9b28 9d3d
000001b0: 60a6 95bd 94de fd3c 707a 35bd c0e0 0cbc
000001c0: 805a 673a eaf1 173d 8007 cd3b c093 9f3a
000001d0: a4cd df3c e9af 5cbd fa2f 423d 909a ba3c
000001e0: 5052 84bb 408f 6f3b e6d5 2c3d 1d42 ae3d
000001f0: 544b 1abd 5a9f 7e3d dbc4 b0bd cebf 1bbd
00000200: d4cb aebd af0d a4bd 649b b1bd 44ff c6bc
00000210: 9408 aebd b89d 9a3c b644 6f3d 2a40 77bd
00000220: 1643 93bd 18b1 88bc 4046 5fbb c01c 22bb
00000230: ac04 a63c 092e aebd 78ce aabc dffd 51bd
00000240: abc0 a23d 8d22 a43d 6a34 6d3d 4cba 03bd
00000250: 013a 57bd 1192 ac3d 24b3 8ebc dc9f dc3c
00000260: a692 043d 4641 8ebd 156b 5dbd 603a 3fbc
00000270: 90b1 acbd e1b1 973d 4e8b 1b3d 0bd5 963d
00000280: 3f04 49bd d69d 333d ae51 1d3d e603 b3bd
00000290: 7378 833d c8d7 69bd 9328 a83d 37b9 8d3d
000002a0: 0f87 a73d 96a1 a6bd 90b8 c23b 3c77 aebd
000002b0: f90d b03d 86ef 2e3d aca8 f33c d4b5 c4bc
000002c0: 4012 46bd 3d74 b13d 9568 aa3d cc16 a6bc
000002d0: 90c1 8cbd 6418 a83c 884f 70bc 109c 58bc
000002e0: 464b 8fbd 96cc 9bbd 89ae a2bd da7c 4a3d
000002f0: 7b2c 803d b02c 30bc 1058 b0bc 9669 dabc
00000300: 762b 8fbd 20b2 3bbc f0fc 1c3c 30be 6d3c
00000310: fcd1 42bd 6c24 b43c 1c69 b63c c9ea 813d
00000320: 4831 79bd 78c5 9f3c ccb7 62bd 8044 f93b
00000330: 849e 98bc e620 2a3d ea09 3e3d c354 ac3d
00000340: 9fb0 8d3d 30d4 843c 8a19 373d 2805 76bc
00000350: 72ba 4b3d d059 7abc 40cc c53b 169c 593d
00000360: ac7b df3c 6462 80bc 2507 a23d b45b a1bc
00000370: 2db1 2cbd ac9d e03c 8006 133c b077 22bd
00000380: 05d6 ad3d d1ee 9b3d 235b 88bd daab 71bd
00000390: 703c 023d a18d 7fbd 7659 7f3d d275 dbbc
000003a0: fc5f 95bc 2b04 50bd d43c 893c f837 6ebc
000003b0: fb3b 99bd 1071 eb3b 006c 0d3a 3397 a13d
000003c0: 4555 05bd e8fa 9bbd eaca 55bd 738d 803d
000003d0: 1e60 29bd 40a1 8c3b b154 41bd 3e6f efbc
000003e0: 286b 393c d4b0 e13c b0c7 82bc 8811 68bc
000003f0: a82c aabc 6488 88bc 1e23 773d 9e9b 9fbd
-0.072774604 0.08269923 0.008929662 -0.029704813 -0.00023198873 -0.04357688 0.00055381656 0.024853371
0.050201647 -0.009740241 -0.08240248 0.072400175 0.067472555 0.076659136 0.07556843 0.06995658
0.02861423 -0.07699065 0.07019494 0.08120526 -0.067531325 0.07054206 -0.046347644 -0.0714712
0.07640671 0.06072212 -0.059907362 0.039220206 0.06808967 -0.052289676 -0.042882584 0.04750774
0.06559696 0.04149043 -0.038302634 -0.04558538 0.021286063 0.06660127 -0.029879514 0.02315218
-0.056508943 -0.06247543 0.07616279 0.04647214 0.034563936 0.079840176 0.0035710707 -0.084658585
-0.053477194 0.008599624 0.022780456 -0.07576585 0.066839196 0.013714634 -0.0052855015 0.08571484
-0.05167797 0.04321062 0.03496678 -0.030734863 0.05198317 0.035703562 -0.024287373 -0.045775503
-0.014673531 -0.073026285 0.076380335 0.06776307 0.01873178 -0.07283577 -0.0021908358 0.07962679
-0.015065305 0.053751744 -0.063344575 0.012122266 -0.07893902 -0.014589645 -0.003920354 -0.03422301
0.006588824 0.022795789 0.051456578 -0.08055243 -0.07548301 -0.044371072 -0.08530337 0.044141628
-0.03650209 0.057467736 -0.05511758 0.017599352 0.060051583 -0.048137464 -0.03993278 0.080098666
0.07136462 -0.07171567 -0.018215545 -0.02189362 0.015240587 0.018098608 -0.036389377 -0.039075565
0.08530948 0.074805774 -0.040052045 0.076737605 -0.07307124 0.030989923 -0.04430622 -0.008598506
0.0008825436 0.03709594 0.0062569976 0.001217477 0.027319737 -0.0538787 0.047409035 0.02277878
-0.0040381327 0.003655389 0.042196177 0.08508704 -0.037669495 0.06216369 -0.08631297 -0.038024716
-0.08534971 -0.080104224 -0.086722165 -0.024291642 -0.0849773 0.018874034 0.058415137 -0.060363926
-0.0719053 -0.016686007 -0.0034068972 -0.0024736375 0.0202659 -0.08504874 -0.020850405 -0.0512675
0.07946905 0.080144025 0.057911314 -0.03216009 -0.05254555 0.084262975 -0.017419405 0.026931696
0.032366417 -0.06946044 -0.0540572 -0.0116716325 -0.08432305 0.074069746 0.03797465 0.073648535
-0.049076315 0.043851696 0.038407974 -0.08740978 0.06419458 -0.05709055 0.08210864 0.069200926
0.08180057 -0.08136289 0.0059424117 -0.08518836 0.08596415 0.042708896 0.029743515 -0.024012484
-0.04835725 0.08664749 0.08320729 -0.020274542 -0.068728566 0.020519443 -0.014667399 -0.013220802
-0.06996779 -0.07607381 -0.07943446 0.049435474 0.06258484 -0.010752842 -0.021526366 -0.026661675
-0.069907114 -0.0114560425 0.009581789 0.014510676 -0.047563538 0.021990024 0.022266917 0.0634361
-0.060838014 0.01950334 -0.055351064 0.007607043 -0.018630274 0.04153528 0.046396174 0.084146045
0.069184534 0.01621446 0.04470209 -0.015015878 0.049738355 -0.015280202 0.0060363114 0.05312737
0.027280651 -0.015671916 0.07911519 -0.019697048 -0.042161155 0.027418934 0.008973718 -0.039664924
0.084880866 0.0761391 -0.06658008 -0.05900178 0.03179592 -0.062390927 0.062341176 -0.02678958
-0.018234245 -0.050785225 0.016752638 -0.014539711 -0.074821435 0.007185109 0.00053948164 0.07890167
-0.032552022 -0.07616216 -0.052195467 0.06276979 -0.04135143 0.0042916834 -0.04719991 -0.02922785
0.011317052 0.027550139 -0.015964359 -0.014164336 -0.020773247 -0.016666599 0.060336225 -0.077933535

fc3.bias f4 [4]
00000000: e219 b5bd ccfd e73d 1850 d53c c4bc d8bd
-0.088428274 0.11327705 0.026039168 -0.10582879

fc3.weight f4 [4, 64]
00000000: 0856 c6bd 4a2f ab3d 9827 b03c 3e6d f03d
00000010: e0d2 623c 80a2 99ba 0a53 ad3d 6ae5 b0bd
00000020: 60ef f53d 3025 aebd e2a8 943d 587b 243d
00000030: 82ab b43d 1a80 f13d e032 843d 48e5 49bd
00000040: cc8a 5cbd a097 9f3d a0b5 7abc 2468 1f3d
00000050: 26fe 8fbd 806c f4bb 22d9 fbbd 605f 72bd
00000060: b671 bd3d 0064 f4b9 20af fa3d b000 10bd
00000070: 8c6d f53d 9427 0c3d 6e02 bd3d 6021 6e3c
00000080: cc91 c5bd 4850 f63d a441 913d 92d0 d43d
00000090: 0402 8d3d 7246 b1bd f239 dd3d 089f e83d
000000a0: 70af c6bc fa7e af3d aefd ec3d c0f4 663b
000000b0: 60b8 d7bc 3af1 a7bd 288a c83c bafc f23d
000000c0: 58b5 94bd 40b9 29bb 0098 38bb 30b0 643d
000000d0: cc12 8d3d 38f6 edbc 36f2 a7bd 4ce6 5b3d
000000e0: 2003 393c 2a0e aebd f025 b33d 90d4 b53c
000000f0: 28da 523d d086 e1bc 445c 78bd 96ae bbbd
00000100: 1414 efbd 3445 1cbd 5c3c 373d 5220 ebbd
00000110: 08b3 8dbd 8ef2 d43d 74f9 34bd 7c65 dbbd
00000120: 82af be3d 0087 693b 80cb 1cbd 8074 d6bd
00000130: 8c97 0e3d 5801 b33c 5cf0 333d 66df 853d
00000140: b046 32bd 687b 26bd 181d 4f3d dce6 603d
00000150: c896 d73d 20c9 4f3c 3c29 883d f8b7 c4bc
00000160: 6466 f9bd 3ebf 85bd 6419 973d c083 373b
00000170: 823f b23d 1ccf c93d d092 bcbd 1ce7 02bd
00000180: c0b2 1dbc 7e9e e2bd 465c d0bd 2c8b 8cbd
00000190: 6836 4dbd 7c4a 8ebd 5845 9f3c 4e28 a73d
000001a0: c4fd b8bd a092 c6bb 464f dc3d 5033 f63d
000001b0: 3cb3 abbd 7075 29bc 2675 de3d 60f3 e4bd
000001c0: 8e28 bcbd f89b 393d 8e3d 863d 5ea7 e7bd
000001d0: 8883 44bd c454 edbd aeac bd3d 984d 15bd
000001e0: f0db 59bc 4090 613c a004 8a3b a4ab f63d
000001f0: 8418 953d a095 ecbd e0ad 743c 8228 f0bd
00000200: 3026 663d 2069 b4bc 70f4 c53d 90a4 be3d
00000210: 8a3d f43d 10a8 adbc 3267 a63d f002 32bc
00000220: b409 fdbd c0bb 793d ccdb 413d 9820 94bc
00000230: bc8c 89bd 06aa f43d 00f8 debd 8e26 c4bd
00000240: 7841 f2bd 8034 d5ba a012 e1bd 94c2 eabd
00000250: 6c13 963d 0e89 973d ce53 a1bd aa22 97bd
00000260: f075 a73d 80ac 54bc e058 06bc 50a7 c2bd
00000270: 1066 913d 6c8e 213d 44b5 b03d 7899 f9bc
00000280: b019 fd3c 4c08 00bd 8046 9e3a 9e55 c03d
00000290: ba80 903d 8407 dd3d 62ee f2bd 62cb fe3d
000002a0: 20bd f63b 6074 e9bb a05d c3bb 5494 f53d
000002b0: 08fc e63c a879 913c 3e67 893d 7a15 8dbd
000002c0: b449 7d3d b8df 923d f6d5 c23d c412 3a3d
000002d0: a8ab cebd e812 a0bc c80d b33d 5046 0c3c
000002e0: 1878 89bc 486b 343d 3a40 a73d 7239 883d
000002f0: 8850 ca3c 485b 573d 5002 183d fee0 8ebd
00000300: ac71 7abd b866 41bd ded6 d83d 925f 923d
00000310: 00a7 863d 54d0 c53d d87d e93c 007c 873c
00000320: 28ea a83d 847b 633d 68a3 923c c008 4f3d
00000330: 6674 833d 5868 05bd 100f 033c 6695 96bd
00000340: f49c b3bd b872 92bd f8bb afbc c0c9 d73c
00000350: 50e0 613c 6659 fcbd 9052 c53d 5c77 d23d
00000360: 444e b0bd e447 c53d d04d c63c 86e3 e13d
00000370: 80a4 5e3d 3823 a0bd 3c41 43bd c8a8 873c
00000380: a60e c5bd d6d8 a4bd b000 653d 926b 813d
00000390: 3038 cbbd 0084 22b9 aabe ae3d 8097 7fbb
000003a0: 2c81 85bd a0a4 c03b 7212 9c3d 2033 1abd
000003b0: f885 e53c 52b5 f1bd 3872 883d f69f e63d
000003c0: 601b e6bb b094 5bbc ec2a 4bbd b868 b43d
000003d0: 1024 2d3d 9c66 77bd b0de 9cbd 7ab2 cebd
000003e0: 1281 b6bd 2ed1 f53d fc80 b83d 3449 bb3d
000003f0: f021 203c 1c75 00bd ca30 edbd 004c d73b
-0.09684378 0.08358629 0.021503255 0.11739586 0.013844222 -0.0011721402 0.08463104 -0.08637507
0.12008548 -0.08503187 0.07258774 0.040156692 0.08821775 0.117920116 0.06455016 -0.049290925
-0.053843305 0.07792592 -0.015302092 0.038917676 -0.07030897 -0.0074592233 -0.12297274 -0.059172988
0.09250204 -0.00046613812 0.12240434 -0.035156906 0.11983785 0.034217432 0.09228979 0.014534324
-0.09646949 0.12027031 0.07092598 0.10391344 0.0688515 -0.086560145 0.10802068 0.11358458
-0.024253577 0.08569141 0.11571823 0.0035241097 -0.026333034 -0.08200307 0.02447994 0.1186461
-0.07261151 -0.002589777 -0.002816677 0.055832088 0.06888351 -0.02904807 -0.08200495 0.053686425
0.011292249 -0.08498795 0.087474704 0.022196084 0.05147758 -0.027530104 -0.060634866 -0.09164159
-0.116737515 -0.038151935 0.044735298 -0.11480774 -0.06918913 0.10397826 -0.04418321 -0.10712716
0.09310819 0.0035633445 -0.03828001 -0.10471439 0.034812495 0.021851227 0.043930396 0.065367505
-0.043524444 -0.040645033 0.050564855 0.054907665 0.10526806 0.012682229 0.0664849 -0.024013504
-0.121777326 -0.06530617 0.0737789 0.0028002113 0.087035194 0.09853956 -0.0920769 -0.031958684
-0.009625137 -0.11065386 -0.1017385 -0.068624824 -0.050100714 -0.069478005 0.019442245 0.081619844
-0.09032777 -0.0060599595 0.10757308 0.12021506 -0.083837956 -0.010342941 0.10862188 -0.111792326
-0.09187423 0.04531476 0.065547094 -0.1131122 -0.047977 -0.115884334 0.09261452 -0.036450952
-0.013297066 0.013767302 0.004211977 0.120444566 0.072800666 -0.11551976 0.014934033 -0.11726476
0.056188762 -0.022022784 0.096657634 0.093087316 0.119258 -0.021198303 0.08125152 -0.010864958
-0.12355366 0.060970068 0.047328755 -0.018081948 -0.06716296 0.11946492 -0.10887146 -0.09577666
-0.118288934 -0.0016266257 -0.109898806 -0.11462894 0.07327923 0.07399188 -0.078773126 -0.073796585
0.08176792 -0.01298058 -0.0081999 -0.095045686 0.07099545 0.039442465 0.08628324 -0.030468687
0.030896038 -0.031257913 0.0012075454 0.0939133 0.07055803 0.10792449 -0.11861874 0.12441136
0.0075298697 -0.0071244687 -0.0059620887 0.11991182 0.02819635 0.017758206 0.06709145 -0.06888862
0.061837867 0.07171577 0.09513466 0.045428053 -0.100913346 -0.019540265 0.08742863 0.008561686
-0.016780898 0.044047624 0.08166547 0.06651582 0.024696603 0.052577287 0.03711158 -0.069765076
-0.061143562 -0.0472171 0.10587858 0.07147135 0.065748215 0.09658876 0.02850239 0.01653862
0.08247787 0.055537716 0.017900184 0.050545454 0.064186856 -0.032570213 0.007999197 -0.07352714
-0.08770171 -0.07150787 -0.021451935 0.02634132 0.01378639 -0.12321739 0.09634888 0.10276672
-0.08608678 0.09632853 0.024207026 0.11029725 0.0543561 -0.078192174 -0.047669634 0.016559973
-0.096219346 -0.08049171 0.05590886 0.063193455 -0.09922826 -0.00015498698 0.0853246 -0.0039000213
-0.06518778 0.005879 0.07620706 -0.037646413 0.028017983 -0.11802162 0.066624105 0.11260979
-0.0070223063 -0.013402149 -0.04960148 0.08809036 0.04227072 -0.06040059 -0.07659662 -0.100926355
-0.08911337 0.120027885 0.09008977 0.09144822 0.009773716 -0.031361684 -0.115815714 0.006570339
