data/DuelingDeepQNetwork.onnx (onnx, 54483 bytes, 7 tensors)

A.bias f4 [4]
00000000: be98 df3d 7650 eb3d 2414 363d 02b1 abbd
0.10917805 0.11489956 0.0444528 -0.08383371

A.weight f4 [4, 64]
00000000: ac49 963d ecc8 913d b41a e7bd 60ef c5bc
00000010: 68f7 b1bc 98dc a0bc feca f13d d8a6 8abc
00000020: a208 d9bd 34a4 1c3d 262a 90bd 1030 233d
00000030: 244b eabd 9020 3c3d 30cc 183d 800a 393c
00000040: b007 723c f635 a7bd ee2d cb3d c0a8 143d
00000050: 5cb3 0abd 7046 b4bc 3e66 debd 4c1e dfbd
00000060: 7c82 163d 1c3f 043d e0af 32bc a861 8dbc
00000070: 24d9 c93d acae babd 26a2 babd 388f 75bd
00000080: f615 81bd 00b0 e33b 38af 1abd 806e 9a3a
00000090: 1a0f be3d 2450 093d 70b9 bd3c d870 6f3d
000000a0: e0af f03d c6d2 8cbd b070 e3bd 60e4 3e3c
000000b0: e086 193c 448f 24bd e4db 0b3d 1cae a7bd
000000c0: 7035 6c3c f465 c6bd e6e0 993d c0e2 f6bd
000000d0: 9ac3 cfbd c8fc ac3c 886f 8b3c f4db d53d
000000e0: 30cc 81bd 8aa9 cf3d a059 af3b a06e c3bc
000000f0: 125c febd 3eaf a13d 5483 13bd b43e 3a3d
00000100: 7470 8cbd 0057 16ba 24f7 75bd f879 613d
00000110: ee4f e6bd fcf7 89bd 7043 1a3d b817 db3c
00000120: a099 e9bd a25b d83d 7054 2c3d 040e 223d
00000130: 9c5d dbbd 5093 36bd 04ac 3a3d 9000 86bd
00000140: 30f2 db3c 207a e43c c075 823c 30f0 583d
00000150: 764c d1bd d071 aabd f64f e4bd d4fc 9b3d
00000160: 5c1a c1bd 5edb efbd f422 8fbd 6670 a1bd
00000170: 8443 973d 08d4 9abc cabe be3d 40a9 09bc
00000180: d468 65bd b674 adbd 904f 0b3c f877 b33c
00000190: 8c19 efbd 0652 f93d 9084 9fbc 1650 fabd
000001a0: ea9d d53d d06f 673c a85e cc3d dc0b ea3d
000001b0: 986d e3bd cc5b 783d dae5 c23d d477 5c3d
000001c0: fe84 da3d 40a0 f43d f683 823d 5042 0d3d
000001d0: 581e dc3c 3e76 a5bd 8a7a b53d b862 f2bc
000001e0: 90e8 343d bcc3 9c3d d00e fbbc 40c0 a63d
000001f0: a005 f9bb 04ff 8f3d 801f e13a c44b b43d
00000200: e882 c63c 6cc8 c5bd 506b 0cbd b63d 953d
00000210: 00df edba 6a72 b0bd f4b5 7f3d d45b cebd
00000220: 2055 49bc c00e 64bc fcf5 91bd b868 e63c
00000230: 5c93 c93d 1cfc 933d a050 72bd 5eed bb3d
00000240: 887f cfbc 2eb2 f93d 40e4 ea3d 1a42 ed3d
00000250: dcc6 f1bd 4060 95bb 10c3 e13d a4c2 dd3d
00000260: 3e99 a23d 0003 b03d c0c9 99bd 9c1c 6d3d
00000270: 547a 203d 86a1 83bd c052 b83b b450 79bd
00000280: acf1 90bd eecf ddbd d86d ecbd b4b5 253d
00000290: c0d5 d5bb 20d9 74bc 348f 5bbd e288 c0bd
000002a0: 62c4 9c3d 38cf 803d 90a6 eb3d ccad 16bd
000002b0: fe0c eebd 6022 703d 9af8 b6bd 58cf 82bd
000002c0: 500e e63c 4009 07bc d0c8 6dbd d068 1dbc
000002d0: 309f 213c 104f 60bc a4aa 9f3d 00d2 efbb
000002e0: 6439 acbd 3aae febd cc51 aa3d 52d6 b23d
000002f0: 22e5 dc3d b0b1 31bd e410 e2bd 00af f53b
00000300: 00f0 b43c b86b cdbd a8e9 81bd b0c1 c1bd
00000310: 7ce4 82bd 3ee4 983d 0e7a e0bd 5058 1dbc
00000320: 583b fd3c 42cb eabd 64e6 123d c6d8 ca3d
00000330: d4da 473d 4a0f c83d 401a 6e3c 4e0f 803d
00000340: 50b4 39bc ae26 fdbd cc38 96bd ac42 5cbd
00000350: 3efc a7bd 4cd8 acbd e0b6 533c 2cd7 fabd
00000360: 604c d3bc 8493 b7bd c628 e13d 200e 94bb
00000370: 38f7 1f3d 2809 df3d 5072 32bd 04dc e1bd
00000380: c6a2 89bd 504d 66bc faea 943d 5414 06bd
00000390: 24f3 c83d dc16 aabd 4405 223d eaca d53d
000003a0: 50cb 80bc f2ca e63d d28d 933d 3835 9fbc
000003b0: e02d d8bb f035 f6bd 1418 93bd 0e3f ce3d
000003c0: cae9 b8bd 4aaf b7bd 5c77 3d3d d81c 5bbd
000003d0: dc6c b33d 8acf ddbd 44ca 3cbd 6044 6b3d
000003e0: ac53 0c3d 00f2 88bc d46f f73d b46f 453d
000003f0: 4284 cf3d 9cf7 1d3d fcf0 4a3d 2ce4 b9bd
0.073382705 0.07118401 -0.1128439 -0.024161994 -0.021724418 -0.019636437 0.11806296 -0.01692526
-0.1059735 0.038242534 -0.07039289 0.039840758 -0.11440113 0.04592949 0.037304103 0.011294007
0.014772341 -0.08164589 0.0992087 0.036293745 -0.033862457 -0.022006243 -0.10859345 -0.108944505
0.036745533 0.03228675 -0.01090619 -0.01725848 0.098558694 -0.09115347 -0.091129586 -0.059951037
-0.06303017 0.006948471 -0.037764758 0.0011782199 0.09280224 0.033523694 0.023159713 0.058457226
0.117522955 -0.06876139 -0.11105478 0.0116511285 0.009370536 -0.04017569 0.03414525 -0.081875056
0.014417037 -0.09687415 0.07513599 -0.12054968 -0.1014473 0.02111663 0.017020956 0.10442343
-0.06337774 0.10139759 0.0053512603 -0.023856461 -0.12419905 0.07894753 -0.036013916 0.045469955
-0.06857386 -0.000573501 -0.060050145 0.05504796 -0.11245714 -0.067367524 0.03766197 0.026744708
-0.11406255 0.105643526 0.042072713 0.039564148 -0.10711214 -0.044574082 0.045574203 -0.06543076
0.026848882 0.027890265 0.015925288 0.052963436 -0.10219662 -0.08322489 -0.11148064 0.076165825
-0.09428856 -0.11711763 -0.06989089 -0.078827664 0.073859245 -0.018899933 0.09313734 -0.008402169
-0.056008175 -0.084695265 0.008502856 0.021907791 -0.116747946 0.12173848 -0.01947239 -0.122223064
0.1043051 0.014125779 0.09978992 0.11428043 -0.11104888 0.06063442 0.09516497 0.053825215
0.106698975 0.11944628 0.06372826 0.03448707 0.026869938 -0.080791935 0.08861263 -0.029588088
0.0441671 0.07654521 -0.030646712 0.081421375 -0.0075995475 0.07031062 0.0017175525 0.08803514
0.024232343 -0.09657368 -0.03428203 0.07287161 -0.0018148124 -0.08615573 0.062429383 -0.100761086
-0.012288362 -0.013919532 -0.07126996 0.028126106 0.0984256 0.072258204 -0.05915892 0.091761336
-0.025329366 0.12192188 0.114693165 0.115848735 -0.118055075 -0.004558593 0.11023533 0.108281404
0.07939385 0.08594322 -0.07509184 0.057888612 0.03917916 -0.064272925 0.005625099 -0.06086798
-0.07077345 -0.10830675 -0.115443885 0.04045649 -0.006525725 -0.014944345 -0.053603366 -0.09401108
0.076546445 0.06289524 0.11506379 -0.03678684 -0.11623572 0.058626533 -0.08934136 -0.06387204
0.028082997 -0.008241951 -0.058052838 -0.009607509 0.009864613 -0.013690725 0.07796219 -0.007318735
-0.08409384 -0.12435575 0.08316383 0.087322846 0.10785891 -0.043382347 -0.11038378 0.0074976683
0.022087097 -0.10030311 -0.063433945 -0.09460771 -0.06391236 0.07465409 -0.1096078 -0.009603575
0.030912086 -0.114645496 0.03586425 0.099046275 0.048792675 0.09768541 0.014532626 0.06252919
-0.011334494 -0.12360893 -0.07335052 -0.05377452 -0.08202408 -0.08439693 0.012922019 -0.12248072
-0.025793254 -0.08963683 0.10994105 -0.0045182854 0.039054126 0.10890418 -0.04356605 -0.11028293
-0.067205 -0.014056519 0.07271381 -0.03273423 0.098120004 -0.08305141 0.039555803 0.104390934
-0.015721947 0.112691775 0.072047845 -0.019434556 -0.0065972656 -0.120220065 -0.07182327 0.100706205
-0.09028967 -0.089689806 0.046256408 -0.053494304 0.08760998 -0.108306006 -0.046091333 0.057438254
0.034259483 -0.016716957 0.120818764 0.04820223 0.10132648 0.038566217 0.049546227 -0.090767235

V.weight f4 [1, 64]
00000000: 1484 abbd 8872 043d 0cce 3f3d a2f9 bdbd
00000010: dc20 a3bd d496 dcbd d6ee 893d 20e3 1bbd
00000020: 0e19 fdbd eca2 863d 9c72 ef3d 9022 6b3c
00000030: d413 62bd 80f8 943c 707d 2d3c 00d1 90bc
00000040: c081 03bd 303a 21bc a8ef da3c baaa 953d
00000050: 84e7 71bd a484 46bd 1a65 833d aa0d 8abd
00000060: 9056 39bd cc97 49bd 6060 303d ece6 803d
00000070: 64e1 5cbd e094 e5bd 100b abbd 0849 443d
00000080: d07e 833d f254 933d f0ad 1cbd 24e2 fc3d
00000090: e83a da3c a06f a23b b07c 9ebc 18cb 5bbd
000000a0: a0b8 e0bd 7aed b33d 50dd 0e3c 5086 d5bd
000000b0: 188b e03c 74a3 14bd 5a29 ebbd 02d7 87bd
000000c0: 409c 05bc 0630 cabd 66d3 a73d 58a1 eb3c
000000d0: 0888 a03d 0008 83bd c0ea 9d3d b82b 83bc
000000e0: 8c31 8fbd 30af 153d fa88 e2bd 40dc 4ebd
000000f0: 8aed 8bbd 2829 39bd e0b6 233d d895 0fbd
-0.08374801 0.032335788 0.04682736 -0.09276129 -0.07965252 -0.10770956 0.067350075 -0.0380584
-0.123582944 0.06574044 0.11691782 0.014351502 -0.05519469 0.0181849 0.010588989 -0.017677784
-0.03210616 -0.009840533 0.026725605 0.07307954 -0.05905868 -0.04846634 0.06415768 -0.067408875
-0.045248568 -0.04921703 0.04306066 0.06294045 -0.053925887 -0.11210036 -0.083517194 0.04792121
0.06420672 0.071939364 -0.038251817 0.123478204 0.026639417 0.0049571544 -0.019346565 -0.053660482
-0.109727144 0.087855294 0.008719757 -0.10426009 0.027410075 -0.036288694 -0.114824966 -0.06632806
-0.008154929 -0.09872441 0.08194618 0.028763458 0.07838446 -0.0639801 0.07710791 -0.016012058
-0.06991872 0.036544025 -0.110612825 -0.050503016 -0.06832416 -0.045205265 0.039969325 -0.03505501

fc1.bias f4 [128]
00000000: d6a0 7cbd a037 8e3b 2e72 d13d d0cf 823d
00000010: c4f4 a43d 2cff 603d ac24 17be a03a de3c
00000020: 2037 01bd 99f0 e2bd acee 9abd 327b cfbd
00000030: b032 d4bd 0449 12be 2006 f0bc 891e bcbd
00000040: 3294 b03d 00e0 cd39 3f58 87bd 9ae0 813d
00000050: 441c 0bbe 1aa1 e33d 54cf 1a3d 5c66 f6bd
00000060: 141a 19bd 94cf 7a3d 5e84 40bd d402 0cbd
00000070: 9fd9 1c3e c80c d7bc 2b60 223e b83a acbd
00000080: e0a9 c4bb 1087 40bc 1757 fdbd 8fd0 a8bd
00000090: fd9c 0e3e 7bcb 96bd 00f6 e4bd ba1c 47bd
000000a0: b0a1 913c c8f5 323d 2b77 133e a038 183d
000000b0: 9c08 c6bd 58d4 4d3d 99eb 043e 53a7 c6bd
000000c0: dd41 28be 510a eabd 1ff2 003e 70aa 783d
000000d0: 562f f23d 88de 433d c534 a4bd 1481 583d
000000e0: c451 533d b277 e43d d4ef 32bd f058 313c
000000f0: d99d 123e f07e c83c 7e51 ddbd c519 edbd
00000100: 5aa5 ea3d c25d c43d 34cc a73d ecbe 093d
00000110: 8449 143d e245 b73d 04da 13be 9818 a03d
00000120: ae30 eebd 5f4b 10be 0879 b03c d860 c5bc
00000130: 66d2 d43d 42d1 bebd 6ec2 9a3d 37d3 123e
00000140: 403b 233b 7847 d2bc fd95 203e 2a10 c93d
00000150: 64e9 1c3d cc1d 08bd 00ad d5bb 00e6 05bc
00000160: 3849 553d 678c 1dbe 2c71 393d 4314 d0bd
00000170: ceee c43d d330 033e 82dc abbd 86d9 fa3d
00000180: c689 c0bd 77cb 1abe 43eb babd e9b6 013e
00000190: 0dde 0c3e 42ae ce3d 8e7e fcbd 0080 32b7
000001a0: 9a48 9f3d e34f 183e 317c c7bd 4ea3 f23d
000001b0: aa14 fdbd 6c29 4e3d 92fc e9bd a746 153e
000001c0: 982e bdbd 2673 74bd d005 963c 795e 1f3e
000001d0: 8b01 073e 9c11 69bd ece7 173d 81f8 1d3e
000001e0: f0c2 0bbe f020 31bc 7714 23be 63c6 bfbd
000001f0: c84d 853c 686c 4ebd bcc5 13bd ea72 ecbd
-0.061676823 0.004340127 0.10226856 0.06387293 0.08054498 0.05493085 -0.14760083 0.027127564
-0.031546712 -0.110810466 -0.07565054 -0.101309195 -0.103612304 -0.14285666 -0.029299796 -0.091855116
0.08622016 0.0003926754 -0.066086285 0.063416675 -0.13585001 0.11114712 0.03779538 -0.12031242
-0.037378386 0.06123312 -0.047001235 -0.034182385 0.15317391 -0.026251212 0.15856998 -0.08409637
-0.006001696 -0.011750951 -0.12370127 -0.082429044 0.13927074 -0.073630296 -0.11179733 -0.04861138
0.017777294 0.043691427 0.14400928 0.037163377 -0.09669611 0.050251335 0.12980498 -0.09699883
-0.16431375 -0.11427749 0.12592362 0.060709417 0.11825435 0.047819644 -0.080178775 0.052857473
0.05159165 0.111556426 -0.04368575 0.010824427 0.14318027 0.024474591 -0.10806559 -0.11577181
0.114573196 0.095881954 0.081932455 0.033629343 0.036202922 0.08948876 -0.14438635 0.07817191
-0.11630379 -0.14091252 0.021542087 -0.02409403 0.10391693 -0.093172565 0.07556616 0.14338385
0.0024907142 -0.025668845 0.15682216 0.09817536 0.038308516 -0.03323154 -0.0065208673 -0.008172512
0.05207178 -0.1538559 0.045273945 -0.101601146 0.09615861 0.12811594 -0.08391668 0.122485206
-0.09401278 -0.15116678 -0.09126904 0.12667431 0.1375658 0.10091831 -0.12328826 -1.0639429e-05
0.077775195 0.14874224 -0.097404845 0.11847554 -0.12357457 0.05033247 -0.11425127 0.14577733
-0.09237403 -0.059680127 0.018313318 0.15563382 0.13184182 -0.05690156 0.037086412 0.15426828
-0.13648582 -0.010811076 -0.15925775 -0.09364011 0.01627244 -0.050396353 -0.036077246 -0.115453556

fc1.weight f4 [128, 37]
00000000: f8e6 1abd 4ea1 c5bd 929a b23d 62ac 58bd
00000010: 8804 26be 8007 803c dbce 1fbe 5ff0 153e
00000020: 3801 933d 403c d33c 66b7 af3d 1a2c cc3d
00000030: 7e5d eebd 189f 643d 18d3 993d e31a 87bd
00000040: 3fee 163e 3138 0c3e a413 8cbd 8ef2 90bd
00000050: 1224 34bd 22ad db3d 2dbf 1b3e 9130 bbbd
00000060: 0fc7 0bbe ba5d 63bd 27c4 073e d4ca 7fbd
00000070: 27c0 21be c0e6 d43b c50f 0a3e e538 033e
00000080: 258d 94bd d6ea 893d acb5 d5bd 9598 0c3e
00000090: 68e2 18be a569 b3bd 80b4 953b 3c74 1a3d
000000a0: 7f11 053e fa78 973d 10e2 07be 760d fabd
000000b0: a877 863d 52a9 973d 9081 01bd 388f af3c
000000c0: ea7e 77bd 60ce 0c3c 52ce db3d 60c8 e63b
000000d0: 0018 2c3b ea07 5bbd 59e7 073e cd09 c7bd
000000e0: b034 9cbd 5128 043e cc12 84bd 7ae3 46bd
000000f0: 8052 c3bc ab39 25be efc5 013e 5ae0 debd
00000100: 324c af3d bde7 bdbd d8d5 ddbd 001f 373b
00000110: d971 0dbe bace b73d 7e9e 1fbe 7434 e2bd
00000120: ec15 653d 3ac3 b63d f6f2 e6bd 107f 6bbc
00000130: b0de 50bd 1044 123c 50ce 6cbd 0a28 42bd
00000140: 4743 1a3e 80b0 7abb 0287 25bd 1296 9dbd
00000150: 579f 9fbd b44d a93d 2e82 5bbd 90d9 413d
00000160: 3a82 bb3d c23a ad3d 4435 0fbd 0b02 b8bd
00000170: 76db bfbd 8a1a a73d 03b7 82bd 3638 a6bd
00000180: 7082 fb3c 5fb6 183e a2e4 93bd 122e babd
00000190: aebb debd b7a2 0e3e 815e 0cbe 4dc9 013e
000001a0: 83a2 153e 8a37 e33d 0cb0 33bd a019 f73b
000001b0: 6a32 e23d 2390 203e 002c 793d 0006 c539
000001c0: a031 5fbd c35d 183e 05bc 083e a48e 7b3d
000001d0: 5cb8 08bd 18ee ebbc c61c 0bbe 18a6 11bd
000001e0: 7e67 853d f129 eebd 46eb c7bd e278 e1bd
000001f0: 2b59 133e 40af 233c 2d42 a5bd 3a47 6fbd
00000200: 3e0b efbd c410 31bd 2efa 9bbd c022 58bb
00000210: 8850 873d 3b98 9ebd a6d9 b13d 585e 43bd
00000220: 004d 153d 10fb 773d 3685 07be a027 a63d
00000230: dd83 0bbe 1781 86bd e19e 093e 40a3 45bd
00000240: ec35 8f3d f8da 50bd a0d1 e7bb d0a9 c1bd
00000250: 8066 1fbe f262 a53d b8fb 723d 2d11 253e
00000260: 624a d33d 0049 4e3a 1998 d7bd 1c9d 54bd
00000270: a477 e7bd 60fd 8c3c c875 f7bd 9ed5 ecbd
00000280: a277 cd3d 20f6 773d c652 cf3d 00e7 5a3c
00000290: b296 c83d c983 bebd 9469 4e3d eb73 183e
000002a0: 8f76 12be 5415 b1bd 146f 083d 072a 093e
000002b0: 1617 f5bd 4154 213e 008e a83a bb1b 123e
000002c0: 20b3 d13c d80b cbbd 04e8 ab3d 0c25 20be
000002d0: aa72 a4bd 3472 dbbd 3f2b c6bd e8ef fcbc
000002e0: 0915 043e c010 853c ba94 eb3d 5e72 24be
000002f0: 1c54 eabd a839 a83d 43f1 09be ee6e cc3d
00000300: 0204 5bbd 6b5b 103e a689 97bd f0db 3bbc
00000310: 26d0 cfbd b01c 6abc 426b a1bd b8dc 25be
00000320: d967 aebd 623c 70bd aa92 fdbd f018 1abe
00000330: 30e0 ba3c 0bf3 053e 0ee8 02be 79be c0bd
00000340: a8f6 8abd 1d80 23be 58fc ce3c 520f bd3d
00000350: 402b 26be b07d b53c ed89 1e3e 877f 243e
00000360: a0e5 9ebc e8e6 93bd eab4 a43d 8015 ddbb
00000370: 148e afbd e83f afbc 62b1 ef3d d51c fabd
00000380: 0458 ffbd 102b 4cbc ac29 96bd 7932 24be
00000390: a0c7 fe3b 7862 293d d625 80bd 983e a83d
000003a0: 60f0 8f3d 569d 83bd 4e17 c33d e1d2 b4bd
000003b0: 000e 48bc 20f9 4f3c 5aa2 ad3d 66e8 09be
000003c0: d69f 943d 75f8 bcbd 765c d63d 60e8 1ebe
000003d0: cbb5 a7bd 1170 a6bd d912 26be fa0d 26be
000003e0: 4f2f 143e 4812 bdbc d09e 9e3d e8cb 0fbd
000003f0: 309d a33c da52 ce3d 4d1f 123e 00e1 ee3c
-0.037817925 -0.09649907 0.08720888 -0.052898772 -0.16212666 0.015628576 -0.15606253 0.14642476
0.07177967 0.025785565 0.08579902 0.09969349 -0.11638926 0.055815786 0.07510966 -0.06596925
0.14739321 0.1369331 -0.06839684 -0.07077514 -0.04397971 0.10726382 0.15209647 -0.09140123
-0.13650154 -0.055509306 0.1325842 -0.06244929 -0.15795957 0.006497234 0.13482578 0.12814672
-0.07253484 0.067342445 -0.10435042 0.1373008 -0.14930117 -0.087603845 0.0045686364 0.037708506
0.12994955 0.07396121 -0.1326983 -0.12209599 0.06565791 0.07405342 -0.0316177 0.021430597
-0.06042377 0.0085941255 0.10732712 0.0070429295 0.0026259422 -0.053474344 0.13271846 -0.09718666
-0.07627237 0.12906004 -0.06448898 -0.048556782 -0.02384305 -0.1613528 0.12673162 -0.108826354
0.08559455 -0.09272716 -0.10831803 0.0027942061 -0.1381296 0.08974977 -0.15587804 -0.11045161
0.05592911 0.08923955 -0.1127681 -0.014373556 -0.05099362 0.00892736 -0.057813942 -0.047401465
0.15064727 -0.0038252175 -0.040411957 -0.07694639 -0.077940635 0.08266774 -0.053590946 0.047326624
0.09155698 0.08458473 -0.034962907 -0.08984765 -0.09368031 0.08159359 -0.06382563 -0.0811619
0.030701846 0.14913319 -0.072213426 -0.090908185 -0.10875641 0.13929258 -0.13707925 0.12674446
0.14612775 0.110945776 -0.043869063 0.0075408965 0.11044772 0.15679984 0.060832977 0.00037579238
-0.054490685 0.14879517 0.13352974 0.06141533 -0.033378944 -0.028800055 -0.13585195 -0.03555879
0.0651388 -0.116290934 -0.09761672 -0.11009385 0.14389484 0.009990513 -0.08069263 -0.058417536
-0.11672066 -0.04322888 -0.07616077 -0.0032979697 0.06607157 -0.077438794 0.08684091 -0.047697395
0.036450386 0.060542166 -0.1323441 0.081130266 -0.1362452 -0.06567591 0.13439514 -0.04825139
0.06992707 -0.050990075 -0.00707455 -0.09456217 -0.15566444 0.08075513 0.05932209 0.16119833
0.10316922 0.0007869154 -0.10527057 -0.051907644 -0.113021165 0.017210662 -0.12083012 -0.11564182
0.10032584 0.060537457 0.1012321 0.013360739 0.09794368 -0.0930248 0.050393656 0.14887969
-0.14303039 -0.08646646 0.033309057 0.13394938 -0.11967294 0.15754797 0.0012859702 0.14268391
0.025598109 -0.099143684 0.08393863 -0.15639132 -0.08029683 -0.10715142 -0.09676217 -0.030876115
0.1289865 0.016243339 0.11502977 -0.16059253 -0.11441824 0.08214122 -0.1347094 0.09982096
-0.05347062 0.14097373 -0.07399301 -0.011466011 -0.10147123 -0.014289066 -0.07881786 -0.16197479
-0.08515901 -0.058651336 -0.123814896 -0.15048575 0.022811979 0.13080995 -0.12783834 -0.0941133
-0.06785327 -0.1596684 0.025266811 0.09231438 -0.16227436 0.022154659 0.15482302 0.16064273
-0.019396603 -0.07221776 0.08042319 -0.0067469478 -0.08572021 -0.021392778 0.11703755 -0.122125305
-0.124679595 -0.012461439 -0.07332167 -0.16034879 0.007775262 0.041353673 -0.06257217 0.08215064
0.0702827 -0.06426494 0.095259294 -0.088292845 -0.012210369 0.012693673 0.08478232 -0.13467559
0.07257049 -0.09227077 0.10466854 -0.15518332 -0.08188971 -0.08126844 -0.16218127 -0.16216269
0.14471172 -0.023080006 0.07745135 -0.03510657 0.019972414 0.100743964 0.14269753 0.029160023

fc2.bias f4 [64]
00000000: 9fef 943d e825 32bc 487b a13c 6691 663d
00000010: 8d04 61bd 203d c83c b00d 63bc 2644 ecbc
00000020: 4ef9 34bd a8b0 8abc c484 bc3c f8ad f0bc
00000030: 4168 a33d 359c 9f3d aa7b 713d 82c8 713d
00000040: d8d4 71bd 0255 7e3d 1e52 0a3d 8389 69bd
00000050: 444e 18bd a5c5 863d 44d9 a7bd 80ad 9fbd
00000060: 9c4a 81bd bd66 9c3d 7e11 093d 5e62 623d
00000070: 64ca ef3c 0696 6b3d c9a6 873d a499 44bd
00000080: 0c64 19bd 0eb6 25bd c0c8 c6ba 20b3 a43b
00000090: e060 543c 5b92 af3d fc74 db3c 3cae 993c
000000a0: 046c 933c e33c 893d 5e35 3dbd 059f a13d
000000b0: 6c92 e33c e89d 88bd 60be 1dbc a29a 72bd
000000c0: 7b70 79bd 40a5 2abb 34e1 c43c 0b86 a33d
000000d0: 9d1e 81bd 61f3 4cbd 9d51 913d e08d 9f3c
000000e0: 1c56 16bd 3aec 223d a8a7 e63c 75b1 8d3d
000000f0: 9033 eebc 7819 99bc c0f3 303c 105a 8abd
0.072722666 -0.010873295 0.019712105 0.056291007 -0.05493598 0.02444321 -0.013858244 -0.02884109
-0.044183068 -0.01692994 0.023012526 -0.02937983 0.07978869 0.07793466 0.058955826 0.05902911
-0.059040874 0.06209279 0.03376972 -0.057015907 -0.037184015 0.065806665 -0.08195737 -0.077967644
-0.06313059 0.07636783 0.033463947 0.05526959 0.029271312 0.05751612 0.066236086 -0.047998086
-0.037448928 -0.040456824 -0.0015166029 0.005026236 0.01296255 0.08572837 0.026789181 0.01875984
0.017995842 0.06701066 -0.046193473 0.07891659 0.02777978 -0.06670743 -0.0096279085 -0.0592295
-0.060898285 -0.0026038438 0.024033166 0.07984551 -0.06304667 -0.05003679 0.070956446 0.019476831
-0.036703214 0.039776064 0.028156117 0.06918613 -0.029077321 -0.018688902 0.010800302 -0.06755459

fc2.weight f4 [64, 128]
00000000: 0832 403c 6472 d7bc 386d 46bc 5f61 8d3d
00000010: e90a b13d 500a 493c 2622 a8bd 34f5 cc3c
00000020: 517b abbd 04cc c0bc 96fb 523d 5d3f 943d
00000030: 3c75 c43c 6bb8 94bd 0a09 d7bc c00d 8bbd
00000040: 7d5b 16bd 69b3 2ebd 7f5a a63d 405b 89bb
00000050: fa80 033d aa47 6fbd 803e 2d3a 8005 053d
00000060: d896 253c e600 21bd ae47 5d3d 692e 933d
00000070: 4249 2c3d a8d4 083d e9c9 913d ca7f 6bbd
00000080: 8076 98ba 29e8 9dbd 2af3 fbbc 0f7f 903d
00000090: 1bda 9e3d a034 cd3c 91a3 a93d a03f 973c
000000a0: 9092 f93c 3f0d adbd 9ec6 383d 106b 63bc
000000b0: 8599 90bd 3159 23bd c18b 983d 7dda a73d
000000c0: b716 ab3d d9e8 9a3d 1c88 32bd be2d 4e3d
000000d0: eaab 6f3d 1034 cb3c 20a7 acbc e83a f1bc
000000e0: faa3 7c3d 40cc 5ebd 7803 50bc 5d8e 98bd
000000f0: d95e 94bd 5a9a 5f3d 80e4 4bbc c1de 88bd
00000100: abdf 95bd b1d4 53bd 9cd2 94bc 80c7 fe3a
00000110: 3e71 5b3d c907 843d 005f 2f3c 084c 063d
00000120: 3c6e f13c 8a03 0d3d c13c a13d f75e 50bd
00000130: 0a73 773d 73f4 993d aad3 f0bc e0d2 63bc
00000140: a049 9fbb 94b4 81bc ed1d 9f3d 30c8 12bc
00000150: 26de 5f3d ee5f eebc 35df a23d c8a2 893c
00000160: 53f4 943d 000d 72ba 24d9 a2bd 51ab b33d
00000170: eba2 853d 3b9f 0fbd beda 5b3d 3947 2abd
00000180: d6a6 7ebd 4b27 873d d457 9bbd 3afe 78bd
00000190: 43fa 9c3d a606 1f3d deeb 7abd 8338 a0bd
000001a0: 781c 7a3c 4c32 9ebd 48a6 9fbd 28b1 443c
000001b0: 3a0d 65bd cb49 823d b05f 45bc 4865 5f3c
000001c0: 70b1 a63b 5ee6 3abd 8a45 293d 9c30 a9bc
000001d0: 57cf 8d3d 1011 a5bb 0050 d137 a7ef 9bbd
000001e0: 6f0d 953d ba0d f3bc 053e a13d 4c6e aabc
000001f0: 546b cf3c b0d5 963b 8570 37bd c5bc 9b3d
00000200: fb2e 82bd 80f7 133c c603 193d 20db 2cbb
00000210: cfbc 20bd 907b f83b 6225 243d bb6e ad3d
00000220: 6b80 913d 15a3 14bd 307f 25bc 1254 17bd
00000230: 984e d33c a6c6 203d 0555 b03d 68c3 fd3c
00000240: 0b98 953d 90dc 37bc 7637 72bd 8c78 23bd
00000250: ccb7 fd3c 2daf 4abd 0303 a93d d4b7 043d
00000260: 0ab4 683d 6d21 23bd f80a a13c 3048 803c
00000270: 5af8 17bd d33c 8d3d e0b0 043d 707f fa3b
00000280: 10c2 5bbc a46f 97bc 4e38 793d c70b 933d
00000290: f219 603d 4485 f03c bea7 04bd 5f09 19bd
000002a0: bcd4 c43c 38fc 233c 4008 05bd f2ac 76bd
000002b0: 08cf 98bd de24 403d 07ae a33d 5ce1 d33c
000002c0: 8030 bd3c 816c 933d 201d 503c 7454 a03c
000002d0: c404 aa3c 0582 9c3d eadf 7cbd 235c 8b3d
000002e0: fa72 8ebd 61dd a4bd 85a4 b13d cd4b 833d
000002f0: f91a af3d 808a c8ba 0aba efbc 9e99 173d
00000300: 8a96 87bd 59a9 8d3d 05cf 30bd 2256 233d
00000310: fb06 87bd 2f5b a83d 5b2f 22bd 60e4 1e3b
00000320: 86c9 503d a86e 40bc b2f1 263d d6ce 653d
00000330: 43d5 6dbd 55c0 8fbd 4081 a3ba 066b 2d3d
00000340: 9c76 9a3c 8041 23bb 7cdf 38bd 60b8 513b
00000350: 06f2 2c3d 42f8 3d3d 76c2 273d 6a96 afbd
00000360: 8649 533d 81c7 9d3d 03fa 64bd a98a ac3d
00000370: e0fb 79bb e6c1 423d b77b 823d 1474 b1bd
00000380: 7ab3 403d 43e0 9bbd 2153 72bd d004 99bd
00000390: 061f a0bd f90e a23d 2c2c 28bd 2257 fbbc
000003a0: e4ed c6bc d2dc 193d 6f26 a6bd 358f 9f3d
000003b0: 0f1f 19bd db85 95bd 4028 e1ba edf2 28bd
000003c0: 39eb 89bd e91f a9bd b1e4 8a3d 64dc 9cbd
000003d0: dd2c 803d 963b 2a3d f6d1 263d f0f6 97bd
000003e0: d1a1 803d 56d0 4d3d 8051 27bd 045a 87bd
000003f0: c02d 45bb 0011 ef3c 58ea 763c d1fe 9f3d
0.011730678 -0.026299663 -0.012111001 0.06903338 0.08644659 0.012270525 -0.08209638 0.025019266
-0.0837313 -0.023534782 0.051509462 0.07238648 0.023981683 -0.072617374 -0.026249427 -0.06789732
-0.036708344 -0.042651568 0.081227295 -0.004191786 0.032105424 -0.058417954 0.00066087395 0.03247595
0.010106765 -0.039307497 0.054023437 0.071865864 0.04206205 0.03340593 0.071185894 -0.057494916
-0.0011631995 -0.07710297 -0.030755598 0.070554845 0.07756444 0.025049508 0.08283151 0.018462956
0.030465394 -0.08449792 0.04511129 -0.013880506 -0.070605315 -0.03987998 0.07448531 0.0819597
0.08353942 0.075639434 -0.043586835 0.050336592 0.05851356 0.024805099 -0.021075785 -0.029447034
0.061679818 -0.054394007 -0.0126961395 -0.07449029 -0.07244653 0.05459056 -0.012444615 -0.06683112
-0.07318052 -0.05171651 -0.018166833 0.0019438118 0.053574793 0.064467974 0.010703802 0.032787353
0.02947151 0.034427203 0.07872916 -0.050871816 0.060412444 0.07517328 -0.029397804 -0.013905257
-0.0048610717 -0.015833177 0.0776938 -0.008958861 0.054655217 -0.029098477 0.079527296 0.016801253
0.07273164 -0.00092335045 -0.079515725 0.087729104 0.06525215 -0.035063963 0.053675406 -0.04157183
-0.062170826 0.065992914 -0.07585111 -0.060789324 0.07664921 0.0388247 -0.061260097 -0.07823279
0.015265577 -0.07724437 -0.077953875 0.012005128 -0.055920817 0.06361731 -0.012046739 0.013634987
0.00508707 -0.04562985 0.041326083 -0.020653062 0.069243126 -0.0050374344 2.4951994e-05 -0.076140694
0.07277953 -0.029669631 0.078731574 -0.020804547 0.025319733 0.0046031103 -0.04478504 0.07604364
-0.06356617 0.009031177 0.037357114 -0.0026375726 -0.039242562 0.007583089 0.040074714 0.08468386
0.07104572 -0.03628834 -0.010101125 -0.03694541 0.025794312 0.039251946 0.08609966 0.030976966
0.073043905 -0.01122202 -0.059134923 -0.039909884 0.03097143 -0.049483467 0.082525276 0.032401875
0.056812324 -0.0398268 0.01965855 0.015659422 -0.03710208 0.06896367 0.032395244 0.0076445863
-0.013412967 -0.018485852 0.060844712 0.07179981 0.054712243 0.029360421 -0.032386534 -0.037362453
0.02402722 0.010008864 -0.03247857 -0.060223527 -0.07461363 0.04691016 0.079921775 0.025864296
0.023094416 0.0719843 0.012702256 0.01957152 0.020754226 0.07641987 -0.06173698 0.06804683
-0.06955524 -0.08050037 0.08673958 0.06410942 0.085500665 -0.0015300065 -0.029263515 0.037011735
-0.0662051 0.06917066 -0.04316618 0.039877065 -0.06593128 0.08220517 -0.039595943 0.0024245009
0.050973438 -0.0117451325 0.040757842 0.056105457 -0.05806471 -0.07019106 -0.0012474433 0.042338394
0.018855385 -0.0024910867 -0.045135006 0.0032000765 0.042223 0.046379335 0.040956937 -0.08573611
0.05158379 0.07704068 -0.055902492 0.08424885 -0.0038144514 0.047548197 0.06371253 -0.08664718
0.047046162 -0.07611134 -0.05916131 -0.07471621 -0.07818417 0.07913012 -0.04105775 -0.030681197
-0.024283357 0.037564106 -0.081127994 0.077909864 -0.037383135 -0.073009215 -0.0017178133 -0.041247297
-0.06734318 -0.082580395 0.06781901 -0.07659224 0.06258557 0.04156073 0.040727578 -0.074201465
0.06280864 0.050247513 -0.04084921 -0.06608966 -0.0030087084 0.02918291 0.01507052 0.07812274
